…
        "colab": {
          "base_uri": "https://localhost:8080/"
        },
        "id": "7bjleUqzvnxT",
        "outputId": "db3eeade-2e02-4e71-c472-1751ccbaa11f"
      },
      "execution_count": null,
      "outputs": [
        {
          "output_type": "stream",
          "name": "stdout",
          "text": [
            "----------------------------------------------------------------\n",
            "        Layer (type)               Output Shape         Param #\n",
            "================================================================\n",
            "            Conv2d-1           [-1, 64, 64, 64]           9,408\n",
            "       BatchNorm2d-2           [-1, 64, 64, 64]             128\n",
            "              ReLU-3           [-1, 64, 64, 64]               0\n",
            "         MaxPool2d-4           [-1, 64, 32, 32]               0\n",
            "            Conv2d-5          [-1, 128, 32, 32]           8,192\n",
            "       BatchNorm2d-6          [-1, 128, 32, 32]             256\n",
            "              ReLU-7          [-1, 128, 32, 32]               0\n",
            "            Conv2d-8          [-1, 128, 32, 32]           4,608\n",
            "       BatchNorm2d-9          [-1, 128, 32, 32]             256\n",
            "             ReLU-10          [-1, 128, 32, 32]               0\n",
            "           Conv2d-11          [-1, 256, 32, 32]          32,768\n",
            "      BatchNorm2d-12          [-1, 256, 32, 32]             512\n",
            "           Conv2d-13          [-1, 256, 32, 32]          16,384\n",
            "      BatchNorm2d-14          [-1, 256, 32, 32]             512\n",
            "             ReLU-15          [-1, 256, 32, 32]               0\n",
            "       Bottleneck-16          [-1, 256, 32, 32]               0\n",
            "           Conv2d-17          [-1, 128, 32, 32]          32,768\n",
            "      BatchNorm2d-18          [-1, 128, 32, 32]             256\n",
            "             ReLU-19          [-1, 128, 32, 32]               0\n",
            "           Conv2d-20          [-1, 128, 32, 32]           4,608\n",
            "      BatchNorm2d-21          [-1, 128, 32, 32]             256\n",
            "             ReLU-22          [-1, 128, 32, 32]               0\n",
            "           Conv2d-23          [-1, 256, 32, 32]          32,768\n",
            "      BatchNorm2d-24          [-1, 256, 32, 32]             512\n",
            "             ReLU-25          [-1, 256, 32, 32]               0\n",
            "       Bottleneck-26          [-1, 256, 32, 32]               0\n",
            "           Conv2d-27          [-1, 128, 32, 32]          32,768\n",
            "      BatchNorm2d-28          [-1, 128, 32, 32]             256\n",
            "             ReLU-29          [-1, 128, 32, 32]               0\n",
            "           Conv2d-30          [-1, 128, 32, 32]           4,608\n",
            "      BatchNorm2d-31          [-1, 128, 32, 32]             256\n",
            "             ReLU-32          [-1, 128, 32, 32]               0\n",
            "           Conv2d-33          [-1, 256, 32, 32]          32,768\n",
            "      BatchNorm2d-34          [-1, 256, 32, 32]             512\n",
            "             ReLU-35          [-1, 256, 32, 32]               0\n",
            "       Bottleneck-36          [-1, 256, 32, 32]               0\n",
            "           Conv2d-37          [-1, 256, 32, 32]          65,536\n",
            "      BatchNorm2d-38          [-1, 256, 32, 32]             512\n",
            "             ReLU-39          [-1, 256, 32, 32]               0\n",
            "           Conv2d-40          [-1, 256, 16, 16]          18,432\n",
            "      BatchNorm2d-41          [-1, 256, 16, 16]             512\n",
            "             ReLU-42          [-1, 256, 16, 16]               0\n",
            "           Conv2d-43          [-1, 512, 16, 16]         131,072\n",
            "      BatchNorm2d-44          [-1, 512, 16, 16]           1,024\n",
            "           Conv2d-45          [-1, 512, 16, 16]         131,072\n",
            "      BatchNorm2d-46          [-1, 512, 16, 16]           1,024\n",
            "             ReLU-47          [-1, 512, 16, 16]               0\n",
            "       Bottleneck-48          [-1, 512, 16, 16]               0\n",
            "           Conv2d-49          [-1, 256, 16, 16]         131,072\n",
            "      BatchNorm2d-50          [-1, 256, 16, 16]             512\n",
            "             ReLU-51          [-1, 256, 16, 16]               0\n",
            "           Conv2d-52          [-1, 256, 16, 16]          18,432\n",
            "      BatchNorm2d-53          [-1, 256, 16, 16]             512\n",
            "             ReLU-54          [-1, 256, 16, 16]               0\n",
            "           Conv2d-55          [-1, 512, 16, 16]         131,072\n",
            "      BatchNorm2d-56          [-1, 512, 16, 16]           1,024\n",
            "             ReLU-57          [-1, 512, 16, 16]               0\n",
            "       Bottleneck-58          [-1, 512, 16, 16]               0\n",
            "           Conv2d-59          [-1, 256, 16, 16]         131,072\n",
            "      BatchNorm2d-60          [-1, 256, 16, 16]             512\n",
            "             ReLU-61          [-1, 256, 16, 16]               0\n",
            "           Conv2d-62          [-1, 256, 16, 16]          18,432\n",
            "      BatchNorm2d-63          [-1, 256, 16, 16]             512\n",
            "             ReLU-64          [-1, 256, 16, 16]               0\n",
            "           Conv2d-65          [-1, 512, 16, 16]         131,072\n",
            "      BatchNorm2d-66          [-1, 512, 16, 16]           1,024\n",
            "             ReLU-67          [-1, 512, 16, 16]               0\n",
            "       Bottleneck-68          [-1, 512, 16, 16]               0\n",
            "           Conv2d-69          [-1, 256, 16, 16]         131,072\n",
            "      BatchNorm2d-70          [-1, 256, 16, 16]             512\n",
            "             ReLU-71          [-1, 256, 16, 16]               0\n",
            "           Conv2d-72          [-1, 256, 16, 16]          18,432\n",
            "      BatchNorm2d-73          [-1, 256, 16, 16]             512\n",
            "             ReLU-74          [-1, 256, 16, 16]               0\n",
            "           Conv2d-75          [-1, 512, 16, 16]         131,072\n",
            "      BatchNorm2d-76          [-1, 512, 16, 16]           1,024\n",
            "             ReLU-77          [-1, 512, 16, 16]               0\n",
            "       Bottleneck-78          [-1, 512, 16, 16]               0\n",
            "           Conv2d-79          [-1, 512, 16, 16]         262,144\n",
            "      BatchNorm2d-80          [-1, 512, 16, 16]           1,024\n",
            "             ReLU-81          [-1, 512, 16, 16]               0\n",
            "           Conv2d-82            [-1, 512, 8, 8]          73,728\n",
            "      BatchNorm2d-83            [-1, 512, 8, 8]           1,024\n",
            "             ReLU-84            [-1, 512, 8, 8]               0\n",
            "           Conv2d-85           [-1, 1024, 8, 8]         524,288\n",
            "      BatchNorm2d-86           [-1, 1024, 8, 8]           2,048\n",
            "           Conv2d-87           [-1, 1024, 8, 8]         524,288\n",
            "      BatchNorm2d-88           [-1, 1024, 8, 8]           2,048\n",
            "             ReLU-89           [-1, 1024, 8, 8]               0\n",
            "       Bottleneck-90           [-1, 1024, 8, 8]               0\n",
            "           Conv2d-91            [-1, 512, 8, 8]         524,288\n",
            "      BatchNorm2d-92            [-1, 512, 8, 8]           1,024\n",
            "             ReLU-93            [-1, 512, 8, 8]               0\n",
            "           Conv2d-94            [-1, 512, 8, 8]          73,728\n",
            "      BatchNorm2d-95            [-1, 512, 8, 8]           1,024\n",
            "             ReLU-96            [-1, 512, 8, 8]               0\n",
            "           Conv2d-97           [-1, 1024, 8, 8]         524,288\n",
            "      BatchNorm2d-98           [-1, 1024, 8, 8]           2,048\n",
            "             ReLU-99           [-1, 1024, 8, 8]               0\n",
            "      Bottleneck-100           [-1, 1024, 8, 8]               0\n",
            "          Conv2d-101            [-1, 512, 8, 8]         524,288\n",
            "     BatchNorm2d-102            [-1, 512, 8, 8]           1,024\n",
            "            ReLU-103            [-1, 512, 8, 8]               0\n",
            "          Conv2d-104            [-1, 512, 8, 8]          73,728\n",
            "     BatchNorm2d-105            [-1, 512, 8, 8]           1,024\n",
            "            ReLU-106            [-1, 512, 8, 8]               0\n",
            "          Conv2d-107           [-1, 1024, 8, 8]         524,288\n",
            "     BatchNorm2d-108           [-1, 1024, 8, 8]           2,048\n",
            "            ReLU-109           [-1, 1024, 8, 8]               0\n",
            "      Bottleneck-110           [-1, 1024, 8, 8]               0\n",
            "          Conv2d-111            [-1, 512, 8, 8]         524,288\n",
            "     BatchNorm2d-112            [-1, 512, 8, 8]           1,024\n",
            "            ReLU-113            [-1, 512, 8, 8]               0\n",
            "          Conv2d-114            [-1, 512, 8, 8]          73,728\n",
            "     BatchNorm2d-115            [-1, 512, 8, 8]           1,024\n",
            "            ReLU-116            [-1, 512, 8, 8]               0\n",
            "          Conv2d-117           [-1, 1024, 8, 8]         524,288\n",
            "     BatchNorm2d-118           [-1, 1024, 8, 8]           2,048\n",
            "            ReLU-119           [-1, 1024, 8, 8]               0\n",
            "      Bottleneck-120           [-1, 1024, 8, 8]               0\n",
            "          Conv2d-121            [-1, 512, 8, 8]         524,288\n",
            "     BatchNorm2d-122            [-1, 512, 8, 8]           1,024\n",
            "            ReLU-123            [-1, 512, 8, 8]               0\n",
            "          Conv2d-124            [-1, 512, 8, 8]          73,728\n",
            "     BatchNorm2d-125            [-1, 512, 8, 8]           1,024\n",
            "            ReLU-126            [-1, 512, 8, 8]               0\n",
            "          Conv2d-127           [-1, 1024, 8, 8]         524,288\n",
            "     BatchNorm2d-128           [-1, 1024, 8, 8]           2,048\n",
            "            ReLU-129           [-1, 1024, 8, 8]               0\n",
            "      Bottleneck-130           [-1, 1024, 8, 8]               0\n",
            "          Conv2d-131            [-1, 512, 8, 8]         524,288\n",
            "     BatchNorm2d-132            [-1, 512, 8, 8]           1,024\n",
            "            ReLU-133            [-1, 512, 8, 8]               0\n",
            "          Conv2d-134            [-1, 512, 8, 8]          73,728\n",
            "     BatchNorm2d-135            [-1, 512, 8, 8]           1,024\n",
            "            ReLU-136            [-1, 512, 8, 8]               0\n",
            "          Conv2d-137           [-1, 1024, 8, 8]         524,288\n",
            "     BatchNorm2d-138           [-1, 1024, 8, 8]           2,048\n",
            "            ReLU-139           [-1, 1024, 8, 8]               0\n",
            "      Bottleneck-140           [-1, 1024, 8, 8]               0\n",
            "          Conv2d-141           [-1, 1024, 8, 8]       1,048,576\n",
            "     BatchNorm2d-142           [-1, 1024, 8, 8]           2,048\n",
            "            ReLU-143           [-1, 1024, 8, 8]               0\n",
            "          Conv2d-144           [-1, 1024, 4, 4]         294,912\n",
            "     BatchNorm2d-145           [-1, 1024, 4, 4]           2,048\n",
            "            ReLU-146           [-1, 1024, 4, 4]               0\n",
            "          Conv2d-147           [-1, 2048, 4, 4]       2,097,152\n",
            "     BatchNorm2d-148           [-1, 2048, 4, 4]           4,096\n",
            "          Conv2d-149           [-1, 2048, 4, 4]       2,097,152\n",
            "     BatchNorm2d-150           [-1, 2048, 4, 4]           4,096\n",
            "            ReLU-151           [-1, 2048, 4, 4]               0\n",
            "      Bottleneck-152           [-1, 2048, 4, 4]               0\n",
            "          Conv2d-153           [-1, 1024, 4, 4]       2,097,152\n",
            "     BatchNorm2d-154           [-1, 1024, 4, 4]           2,048\n",
            "            ReLU-155           [-1, 1024, 4, 4]               0\n",
            "          Conv2d-156           [-1, 1024, 4, 4]         294,912\n",
            "     BatchNorm2d-157           [-1, 1024, 4, 4]           2,048\n",
            "            ReLU-158           [-1, 1024, 4, 4]               0\n",
            "          Conv2d-159           [-1, 2048, 4, 4]       2,097,152\n",
            "     BatchNorm2d-160           [-1, 2048, 4, 4]           4,096\n",
            "            ReLU-161           [-1, 2048, 4, 4]               0\n",
            "      Bottleneck-162           [-1, 2048, 4, 4]               0\n",
            "          Conv2d-163           [-1, 1024, 4, 4]       2,097,152\n",
            "     BatchNorm2d-164           [-1, 1024, 4, 4]           2,048\n",
            "            ReLU-165           [-1, 1024, 4, 4]               0\n",
            "          Conv2d-166           [-1, 1024, 4, 4]         294,912\n",
            "     BatchNorm2d-167           [-1, 1024, 4, 4]           2,048\n",
            "            ReLU-168           [-1, 1024, 4, 4]               0\n",
            "          Conv2d-169           [-1, 2048, 4, 4]       2,097,152\n",
            "     BatchNorm2d-170           [-1, 2048, 4, 4]           4,096\n",
            "            ReLU-171           [-1, 2048, 4, 4]               0\n",
            "      Bottleneck-172           [-1, 2048, 4, 4]               0\n",
            "AdaptiveAvgPool2d-173           [-1, 2048, 1, 1]               0\n",
            "          Linear-174                   [-1, 83]         170,067\n",
            "================================================================\n",
            "Total params: 23,149,971\n",
            "Trainable params: 23,140,435\n",
            "Non-trainable params: 9,536\n",
            "----------------------------------------------------------------\n",
            "Input size (MB): 0.19\n",
            "Forward/backward pass size (MB): 118.14\n",
            "Params size (MB): 88.31\n",
…
